# Ultralytics YOLOv8 MM Mid-Fusion for Classification
# YOLOMM RGB+X 标准中期融合 (V8 结构) + Classify 分类头
# 核心差异: 保持 yolov8-mm-mid.yaml 的骨干与颈部不变，仅将末端 v8Detect 头替换为 Classify 头。

# Parameters
nc: 80  # number of classes
scales:  # [depth, width, max_channels]
  n: [0.33, 0.25, 1024]
  s: [0.33, 0.50, 1024]
  m: [0.67, 0.75, 768]
  l: [1.00, 1.00, 512]
  x: [1.00, 1.25, 512]

# P4/P5 双层融合架构（同 yolov8-mm-mid.yaml）
backbone:
  # ========== RGB 路径 (0-9) - 到 P5 ==========
  - [-1, 1, Conv, [64, 3, 2], 'RGB']      # 0-P1/2 RGB起始
  - [-1, 1, Conv, [128, 3, 2]]            # 1-P2/4
  - [-1, 3, C2f, [128, True]]
  - [-1, 1, Conv, [256, 3, 2]]            # 3-P3/8 (RGB_P3)
  - [-1, 6, C2f, [256, True]]             # 4
  - [-1, 1, Conv, [512, 3, 2]]            # 5-P4/16
  - [-1, 6, C2f, [512, True]]             # 6 (RGB_P4)
  - [-1, 1, Conv, [1024, 3, 2]]           # 7-P5/32
  - [-1, 3, C2f, [1024, True]]            # 8
  - [-1, 1, SPPF, [1024, 5]]              # 9 (RGB_P5)

  # ========== X 路径 (10-20) - 到 P5 ==========
  - [-1, 1, Conv, [64, 3, 2], 'X']        # 10-P1/2 X起始
  - [-1, 1, Conv, [128, 3, 2]]            # 11-P2/4
  - [-1, 3, C2f, [128, True]]
  - [-1, 1, Conv, [256, 3, 2]]            # 13-P3/8 (X_P3)
  - [-1, 6, C2f, [256, True]]             # 14
  - [-1, 1, Conv, [512, 3, 2]]            # 15-P4/16
  - [-1, 6, C2f, [512, True]]             # 16 (X_P4)
  - [-1, 1, Conv, [1024, 3, 2]]           # 17-P5/32
  - [-1, 3, C2f, [1024, True]]            # 18
  - [-1, 1, SPPF, [1024, 5]]              # 19 (X_P5)

  # ========== P4 与 P5 层级融合 ==========
  - [[6, 16], 1, Concat, [1]]             # 20 P4融合: RGB_P4(6) + X_P4(16)
  - [-1, 3, C2f, [1024, True]]            # 21 (Fused_P4)

  - [[9, 19], 1, Concat, [1]]             # 22 P5融合: RGB_P5(9) + X_P5(19)
  - [-1, 3, C2f, [1024, True]]            # 23 (Fused_P5)

# Neck + Classify 分类头（保持完整 Neck，仅末端头替换为 Classify）
head:
  - [23, 1, nn.Upsample, [None, 2, "nearest"]]  # 24 Fused_P5 上采样
  - [[-1, 21], 1, Concat, [1]]                   # 25 连接 Fused_P4
  - [-1, 3, C2f, [512]]                          # 26

  - [-1, 1, nn.Upsample, [None, 2, "nearest"]]  # 27
  - [[-1, 4], 1, Concat, [1]]                    # 28 连接 RGB_P3(4)
  - [-1, 3, C2f, [256]]                          # 29 (P3/8-small)

  - [-1, 1, Conv, [256, 3, 2]]                   # 30
  - [[-1, 26], 1, Concat, [1]]                   # 31
  - [-1, 3, C2f, [512]]                          # 32 (P4/16-medium)

  - [-1, 1, Conv, [512, 3, 2]]                   # 33
  - [[-1, 23], 1, Concat, [1]]                   # 34 连接 Fused_P5
  - [-1, 3, C2f, [1024]]                         # 35 (P5/32-large)

  - [35, 1, Classify, [nc]]                      # 36 Classify (use P5 feature)
