# Ultralytics YOLOMM 🚀 FSCF Ablation - ACA Only

nc: 80
scales:
  n: [0.50, 0.25, 1024]
  s: [0.50, 0.50, 1024]
  m: [0.50, 1.00, 512]
  l: [1.00, 1.00, 512]
  x: [1.00, 1.50, 512]

backbone:
  - [-1, 1, Conv, [64, 3, 2], 'RGB']
  - [-1, 1, Conv, [128, 3, 2]]
  - [-1, 2, C3k2, [256, False, 0.25]]
  - [-1, 1, Conv, [256, 3, 2]]
  - [-1, 2, C3k2, [512, False, 0.25]]
  - [-1, 1, Conv, [512, 3, 2]]
  - [-1, 2, C3k2, [512, True]]
  - [-1, 1, ACA, [512, 0.5]]
  - [-1, 1, Conv, [1024, 3, 2]]
  - [-1, 2, C3k2, [1024, True]]
  - [-1, 1, SPPF, [1024, 5]]
  - [-1, 2, C2PSA, [1024]]

  - [-1, 1, Conv, [64, 3, 2], 'X']
  - [-1, 1, Conv, [128, 3, 2]]
  - [-1, 2, C3k2, [256, False, 0.25]]
  - [-1, 1, Conv, [256, 3, 2]]
  - [-1, 2, C3k2, [512, False, 0.25]]
  - [-1, 1, Conv, [512, 3, 2]]
  - [-1, 2, C3k2, [512, True]]
  - [-1, 1, ACA, [512, 0.5]]
  - [-1, 1, Conv, [1024, 3, 2]]
  - [-1, 2, C3k2, [1024, True]]
  - [-1, 1, SPPF, [1024, 5]]
  - [-1, 2, C2PSA, [1024]]

  - [[7, 19], 1, Concat, [1]]
  - [-1, 2, C3k2, [1024, True]]

  - [[11, 23], 1, Concat, [1]]
  - [-1, 2, C3k2, [1024, True]]
  - [-1, 1, C2PSA, [1024]]

head:
  - [28, 1, nn.Upsample, [None, 2, "nearest"]]
  - [[-1, 25], 1, Concat, [1]]
  - [-1, 2, C3k2, [512, False]]

  - [-1, 1, nn.Upsample, [None, 2, "nearest"]]
  - [[-1, 4], 1, Concat, [1]]
  - [-1, 2, C3k2, [256, False]]

  - [-1, 1, Conv, [256, 3, 2]]
  - [[-1, 31], 1, Concat, [1]]
  - [-1, 2, C3k2, [512, False]]

  - [-1, 1, Conv, [512, 3, 2]]
  - [[-1, 28], 1, Concat, [1]]
  - [-1, 2, C3k2, [1024, True]]

  - [[34, 37, 40], 1, Detect, [nc]]
