# Ultralytics YOLOMM 🚀 Mid-Fusion (HighFrequencyPerception Test)
# 在 P4/P5 融合后插入 HighFrequencyPerception（单路输入高频增强）。
# 使用注释
# - 模块: HighFrequencyPerception（频域高通保留+空间/通道门控，单路输入）
# - 输入: [B,C,H,W]；输出通道与输入一致
# - 参数(args)顺序: [ratio_hw, patch_hw, groups]
#   · ratio_hw: [rh, rw]（默认 [0.25, 0.25]），频域低频屏蔽比例，越大保留越多高频
#   · patch_hw: [ph, pw]（默认 [8, 8]），用于通道门控统计的池化尺寸
#   · groups: int（默认 32），通道分组数（自动裁剪到 ≤C）

# Parameters
nc: 80 # number of classes
scales: # model compound scaling constants
  # [depth, width, max_channels]
  n: [0.50, 0.25, 1024]
  s: [0.50, 0.50, 1024]
  m: [0.50, 1.00, 512]
  l: [1.00, 1.00, 512]
  x: [1.00, 1.50, 512]

backbone:
  # ========== RGB路径 (层0-10) ==========
  - [-1, 1, Conv, [64, 3, 2], 'RGB']      # 0-P1/2 RGB路径起始
  - [-1, 1, Conv, [128, 3, 2]]            # 1-P2/4
  - [-1, 2, C3k2, [256, False, 0.25]]     # 2
  - [-1, 1, Conv, [256, 3, 2]]            # 3-P3/8 (RGB_P3)
  - [-1, 2, C3k2, [512, False, 0.25]]     # 4
  - [-1, 1, Conv, [512, 3, 2]]            # 5-P4/16
  - [-1, 2, C3k2, [512, True]]            # 6 (RGB_P4)
  - [-1, 1, Conv, [1024, 3, 2]]           # 7-P5/32
  - [-1, 2, C3k2, [1024, True]]           # 8
  - [-1, 1, SPPF, [1024, 5]]              # 9
  - [-1, 2, C2PSA, [1024]]                # 10 (RGB_P5)

  # ========== X路径 (层11-21) ==========
  - [-1, 1, Conv, [64, 3, 2], 'X']        # 11-P1/2 X路径起始
  - [-1, 1, Conv, [128, 3, 2]]            # 12-P2/4
  - [-1, 2, C3k2, [256, False, 0.25]]     # 13
  - [-1, 1, Conv, [256, 3, 2]]            # 14-P3/8 (X_P3)
  - [-1, 2, C3k2, [512, False, 0.25]]     # 15
  - [-1, 1, Conv, [512, 3, 2]]            # 16-P4/16
  - [-1, 2, C3k2, [512, True]]            # 17 (X_P4)
  - [-1, 1, Conv, [1024, 3, 2]]           # 18-P5/32
  - [-1, 2, C3k2, [1024, True]]           # 19
  - [-1, 1, SPPF, [1024, 5]]              # 20
  - [-1, 2, C2PSA, [1024]]                # 21 (X_P5)

  # ========== P4 / P5 融合 + HFP ==========
  - [[6, 17], 1, Concat, [1]]            # 22: P4 融合
  - [-1, 2, C3k2, [1024, True]]          # 23: Fused_P4
  - [-1, 1, HighFrequencyPerception, []] # 24: Fused_P4_HFP

  - [[10, 21], 1, Concat, [1]]           # 25: P5 融合
  - [-1, 2, C3k2, [1024, True]]          # 26
  - [-1, 1, C2PSA, [1024]]               # 27: Fused_P5
  - [-1, 1, HighFrequencyPerception, []] # 28: Fused_P5_HFP

head:
  # 自顶向下路径 (FPN)
  - [28, 1, nn.Upsample, [None, 2, "nearest"]]  # 29 Fused_P5_HFP 上采样
  - [[-1, 24], 1, Concat, [1]]                  # 30 + Fused_P4_HFP
  - [-1, 2, C3k2, [512, False]]                 # 31

  - [-1, 1, nn.Upsample, [None, 2, "nearest"]]  # 32
  - [[-1, 4], 1, Concat, [1]]                   # 33 + RGB_P3(4)
  - [-1, 2, C3k2, [256, False]]                 # 34 (P3/8-small)

  # 自底向上路径 (PAN)
  - [-1, 1, Conv, [256, 3, 2]]                  # 35
  - [[-1, 31], 1, Concat, [1]]                  # 36
  - [-1, 2, C3k2, [512, False]]                 # 37 (P4/16-medium)

  - [-1, 1, Conv, [512, 3, 2]]                  # 38
  - [[-1, 27], 1, Concat, [1]]                  # 39
  - [-1, 2, C3k2, [1024, True]]                 # 40 (P5/32-large)

  - [[34, 37, 40], 1, Detect, [nc]]             # 41 Detect(P3, P4, P5)
